fall_gru_best.pt (torch, 256062 bytes, 6 tensors)

gru.weight_ih_l0 f4 [192, 264]
0	0xbce7d966	-0.028301906
1	0x3dc6893e	0.096941456
2	0x3d0d5b2f	0.034510788
3	0x3d994720	0.07484269
4	0x3d27cd7d	0.040967453
5	0x3d447bfe	0.04796981
6	0xbde5ed67	-0.112269215
7	0xbcf98858	-0.030460522
8	0xbdbabe5a	-0.09118338
9	0xbe007009	-0.12542738
10	0x3d1bb6d1	0.038016144
11	0xbd592478	-0.053013295
12	0xbd31804e	-0.04333525
13	0xbdbdd75e	-0.09269594
14	0xbcaf0818	-0.021366164
15	0x3d8f80ad	0.07006965
16	0xbdbd89a8	-0.092547715
17	0xbda335bb	-0.07969233
18	0x3ddfd780	0.10929775
19	0xbd94bf7e	-0.07263087
20	0xbd1469cb	-0.036233705
21	0x3dad7743	0.08470013
22	0xbde9d4b0	-0.1141752
23	0xbdc47962	-0.095934644
24	0xbc8a303b	-0.016868701
25	0xbdba3e13	-0.09093871
26	0x3d9147bc	0.0709376
27	0x3d2e919e	0.04261934
28	0x3c5835e3	0.013196441
29	0xbd263acb	-0.040583413
30	0xbd6879ca	-0.056756772
31	0x3daf12fb	0.08548542
32	0x3d19616d	0.037446428
33	0x3def268f	0.11677276
34	0x3d4be228	0.049776226
35	0xbd2ceddc	-0.042219028
36	0xbdcfe13e	-0.101503834
37	0x3d874b8a	0.06606205
38	0xbdf7b0e8	-0.12094289
39	0x3d009274	0.03138967
40	0xbdc6e644	-0.097118884
41	0x3dbf02a1	0.09326673
42	0x3d95ab77	0.07308095
43	0xbc8d93c8	-0.017282382
44	0xbc31785f	-0.010831921
45	0x3da129ba	0.07869287
46	0xbd8bfa07	-0.06834798
47	0x3dd5dcdb	0.104425155
48	0xbdcfe153	-0.10150399
49	0x3db44678	0.08802503
50	0xbda068f0	-0.07832515
51	0xbd13e07a	-0.03610275
52	0xbdd8e37f	-0.105902664
53	0xbdc30373	-0.09522142
54	0x3dd7bab5	0.105336584
55	0x3dbc6fa3	0.092009805
56	0xbd6379fc	-0.055536255
57	0x3d53825a	0.051637985
58	0x3cc41264	0.02393455
59	0xbd8765ec	-0.06611237
60	0x3d882d24	0.06649235
61	0xbd8e39f5	-0.06944648
62	0xbc93306e	-0.017967429
63	0xbd11827e	-0.035524838
64	0x3dc9efbb	0.09860178
65	0x3df9477a	0.12171836
66	0xbdd16685	-0.10224632
67	0xbda8de36	-0.082455084
68	0x3c854bb0	0.016271442
69	0xbac0d975	-0.0014713245
70	0x3de7f657	0.113262825
71	0x3dd9e3d6	0.106391594
72	0x3d29ec53	0.041485142
73	0x3d8014e7	0.06253987
74	0xbd9bd20f	-0.07608425
75	0x3dadfcad	0.0849546
76	0xbc76eb38	-0.015070729
77	0x3dd74d37	0.105127744
78	0xbd9e99be	-0.07744168
79	0xbbd03020	-0.006353393
80	0xba3eaebd	-0.0007273963
81	0x3df15fd6	0.117858574
82	0x3def8d58	0.11696881
83	0x3d067de6	0.03283491
84	0xbccfac0c	-0.025350593
85	0xbd83472e	-0.06410061
86	0x3d573614	0.052541807
87	0xbdc9aa5d	-0.09846947
88	0x3cec1802	0.028820042
89	0xbd81aa60	-0.063313246
90	0xbd758e88	-0.05995038
91	0x3c5ee207	0.013603694
92	0x3d084448	0.033268243
93	0xbd95af8d	-0.07308874
94	0xbaa379c6	-0.0012472204
95	0x3c098363	0.008393141
96	0x3d1cd6b2	0.038290687
97	0x3cab7948	0.020931855
98	0xbd0fd9c8	-0.0351198
99	0xbcd02985	-0.025410423
100	0x3de535b6	0.11191885
101	0xbc8e5d83	-0.017378574
102	0xbd9106d1	-0.07081378
103	0xbc915fcd	-0.017745877
104	0x3db64d3f	0.08901452
105	0xbce61a00	-0.02808857
106	0x3da094db	0.07840892
107	0x3c586ec8	0.013210006
108	0xbd6e66f3	-0.05820365
109	0xbc0f9fa4	-0.008766089
110	0xbc2d3ddd	-0.010573831
111	0x3d732768	0.059363753
112	0x3df2d2d2	0.11856617
113	0xbddf8933	-0.109148405
114	0x3d9e7a9a	0.07738228
115	0x3dc197a1	0.09452749
116	0xbc7278a2	-0.014799269
117	0xbd9f5e58	-0.077816665
118	0x3d7ad4cd	0.0612381
119	0xbd85c28c	-0.065312475
120	0xbb650557	-0.003494581
121	0x3d256f3f	0.040389296
122	0x3d95cf78	0.07314962
123	0xbd2cd550	-0.04219562
124	0x3dee28ca	0.11628874
125	0x3c7152c1	0.014729203
126	0xbd4adef3	-0.049529027
127	0x3d2d1de4	0.042264834
128	0x3db2357b	0.08701607
129	0x3dd719f2	0.105029956
130	0xbce70e61	-0.028205099
131	0x3dae41f9	0.08508677
132	0x3d5cfe2a	0.053953327
133	0x3cd8f96a	0.026486117
134	0x3c162c3b	0.009165819
135	0xbd12c756	-0.035834633
136	0xbda66890	-0.081254125
137	0x3df0cdec	0.117580265
138	0x3cc4b9dd	0.024014408
139	0xbb2eca17	-0.0026670748
140	0x3df74ce6	0.12075214
141	0x3d624b71	0.055247728
142	0xbdc671b8	-0.09689659
143	0x3ce47a9a	0.027890492
144	0xbdb84e58	-0.08999318
145	0xbb51b19d	-0.0031996735
146	0xbc1c373c	-0.009534653
147	0x3cb3f6ff	0.021968363
148	0x3d57e845	0.052711744
149	0xbdc0e820	-0.09419274
150	0xbc1f561a	-0.009725118
151	0x3dd01c91	0.101616986
152	0x3dba60b7	0.09100478
153	0x3bbf5809	0.005839352
154	0x3db7bb64	0.08971289
155	0xbc8d7bd0	-0.017270952
156	0x3da72c13	0.08162703
157	0x3dc5a1eb	0.09650024
158	0xbdb0d3ba	-0.08634134
159	0x3dfeadb2	0.124354735
160	0xbbf7d4c9	-0.0075632078
161	0xbdd2de10	-0.10296261
162	0x3db62b9d	0.08895037
163	0xbc13b773	-0.009015906
164	0xba8d413e	-0.001077689
165	0xbd85d77c	-0.06535241
166	0xbb7da5e1	-0.0038703608
167	0xbd89bd66	-0.06725578
168	0xbdab9d52	-0.08379616
169	0x3d9af65a	0.07566519
170	0xbde40c2c	-0.11135134
171	0x3dd6e170	0.104922175
172	0x3d8fb5f6	0.07017128
173	0xbcc88ec4	-0.024482138
174	0xbd24a26f	-0.04019397
175	0x3dd1ade0	0.10238242
176	0x3d90c26b	0.07068332
177	0x3dae4c4c	0.08510646
178	0xbd8f2f3e	-0.069914326
179	0xbd183630	-0.037161052
180	0x3df57b5f	0.11986422
181	0xbcb0c59f	-0.021578608
182	0xbbb6a091	-0.00557334
183	0x3df3f2cb	0.119115435
184	0x3d855ed5	0.065122284
185	0x3dccec91	0.10006059
186	0xbc77f7ac	-0.015134733
187	0xbd3718a7	-0.044701245
188	0x3df076aa	0.117413834
189	0x3de77291	0.11301149
190	0x3c79465c	0.015214529
191	0x3d947a23	0.07249858
192	0xbd8c7876	-0.068589136
193	0x3c76e2eb	0.01506875
194	0xbde57d0a	-0.1120549
195	0x3dd949da	0.10609789
196	0xbde804ab	-0.11329015
197	0xbbf9f456	-0.007628004
198	0xbddf96b8	-0.10917419
199	0xbc97159d	-0.018442923
200	0x3db0b94c	0.086290926
201	0x3dd3eab7	0.10347503
202	0xbdbb7438	-0.09153026
203	0x3d16ca2a	0.036813892
204	0x3db0de04	0.08636096
205	0x3bc64ad5	0.006051401
206	0x3bc33ede	0.005958422
207	0x3d8a3d02	0.067499176
208	0xbcf31336	-0.029672246
209	0xbdecfc9f	-0.11571621
210	0xbdfbac08	-0.12288672
211	0x3d89c7a6	0.06727533
212	0xbb020670	-0.0019840263
213	0xbdcd3c35	-0.10021249
214	0x3d1630e5	0.036667723
215	0x3dc336f8	0.09531969
216	0xbd9512d8	-0.07278985
217	0x3bea9b34	0.007159615
218	0x3d507171	0.050889436
219	0x3da30dd1	0.0796162
220	0xbca8f5d4	-0.020625032
221	0xbd3d4dd2	-0.046216793
222	0xbdc497e4	-0.09599283
223	0xbd871ba7	-0.06597071
224	0xbde556c7	-0.11198192
225	0xbdb70343	-0.08936169
226	0xbde42339	-0.11139531
227	0xbc035cea	-0.008017758
228	0x3de4d3ee	0.11173235
229	0x3dabb564	0.08384207
230	0xbb92514e	-0.0044652587
231	0x3df51742	0.11967327
232	0x3e018cb2	0.12651327
233	0x3d1e482a	0.03864304
234	0x3deced5a	0.11568709
235	0xbd915f70	-0.070982814
236	0xbd279193	-0.040910315
237	0xbdae1095	-0.084992565
238	0x3d8483e7	0.06470471
239	0x3d446849	0.047951017
240	0x3d712c1e	0.058879964
241	0xbde48478	-0.11158079
242	0xbcb855a7	-0.02250178
243	0xbd72d99a	-0.059289552
244	0x3df43b94	0.11925426
245	0xbcf9c535	-0.030489543
246	0x3ddadca1	0.10686613
247	0xbbaf3ed9	-0.005348068
248	0xbda6c1a5	-0.081424035
249	0x3d439d67	0.047757532
250	0xbdf0b0b9	-0.11752457
251	0x3dcfd1fa	0.10147472
252	0x3c7abaf6	0.015303364
253	0x3d647cf9	0.055783246
254	0xbd278200	-0.040895462
255	0x3ce069a3	0.027394122

gru.weight_hh_l0 f4 [192, 64]
0	0x3c9a0905	0.018803129
1	0xbd850ad1	-0.06496204
2	0xbde66405	-0.11249546
3	0xbdb631e1	-0.088962324
4	0x3de93fb3	0.11389103
5	0x3c2089a9	0.009798446
6	0xbdc32e88	-0.095303595
7	0x3dbe44b2	0.09290446
8	0xbd7b3505	-0.06132986
9	0x3e0224cc	0.1270935
10	0xbd773af5	-0.06035896
11	0x3d4cf396	0.05003699
12	0xbd186e42	-0.037214525
13	0x3da5c926	0.08095007
14	0x3b8eed0d	0.0043617547
15	0xbcc9ed06	-0.024649154
16	0xbde61b7a	-0.112357095
17	0xbcb203ab	-0.021730265
18	0xbd1a874f	-0.037726697
19	0xbdcc4a93	-0.099751614
20	0xbd814ee2	-0.06313874
21	0xbca3317e	-0.01992106
22	0xbdd15815	-0.102218784
23	0xbd86e014	-0.06585708
24	0xbde880f2	-0.11352719
25	0x3dcee01b	0.101013385
26	0xbd42aaed	-0.04752629
27	0xbd2ebdf6	-0.04266163
28	0x3dd4f49d	0.10398219
29	0xbd3d61b0	-0.04623574
30	0x3dff96ab	0.124799095
31	0xbd961d08	-0.07329756
32	0x3d99627e	0.07489489
33	0x3d6f8362	0.058474906
34	0x3cce2bb6	0.025167327
35	0x3c6e5a08	0.014547832
36	0xbccc8c1c	-0.024969153
37	0x3afedb0e	0.0019443945
38	0x3de32136	0.11090319
39	0x3db24bab	0.08705839
40	0xbc2a3060	-0.01038751
41	0x3df8037a	0.12110038
42	0xbcbec152	-0.023285542
43	0xbe004cb7	-0.12529264
44	0x3dcf4676	0.10120861
45	0xbc4883d3	-0.012238461
46	0x3dabb470	0.08384025
47	0x3de73f95	0.11291424
48	0x3b0f9d09	0.0021913669
49	0x3db183de	0.0866773
50	0x3dc05ba6	0.093924806
51	0xbdb280ce	-0.08715974
52	0xbdfba006	-0.122863814
53	0xbd132acd	-0.03592949
54	0xbbf4f554	-0.0074755345
55	0xbd0ca797	-0.034339514
56	0x3c8fd103	0.01755572
57	0xbd14954b	-0.03627519
58	0x3ddd54d0	0.10807192
59	0x3db175a2	0.08665015
60	0x3d46253c	0.048375353
61	0xbd91f599	-0.07126922
62	0x3cb7d6b0	0.022441238
63	0x3dc6c43e	0.09705399
64	0x3dcadfd6	0.099059746
65	0x3dc38a25	0.09547833
66	0x3d85e8d6	0.065385506
67	0xbd7ef161	-0.062241916
68	0xbda56f8c	-0.080779165
69	0x3d89daf1	0.06731213
70	0x3e010074	0.12597829
71	0x3dca6cf7	0.09884065
72	0x3d5a5f28	0.053313404
73	0x3d9c6ecf	0.076383226
74	0xbd93b829	-0.0721286
75	0xbc5c3800	-0.013441086
76	0xbce2dc9f	-0.027693091
77	0xbd9c2b3c	-0.07625434
78	0xbdf27a25	-0.118397035
79	0xbc8b0ce3	-0.016973918
80	0x3d3bee07	0.045881297
81	0x3d8619e7	0.06547909
82	0xbd6b0bfa	-0.05738447
83	0x3bce6c7f	0.006299555
84	0xbd206c2b	-0.039165657
85	0x3d95e3c0	0.073188305
86	0x3d068ee4	0.032851115
87	0x3dbeefb3	0.09323063
88	0xbcb14b5f	-0.021642385
89	0xbc84e028	-0.016220167
90	0x3dc01b7e	0.09380244
91	0x3dde7f29	0.108640976
92	0xbd85db67	-0.06535988
93	0xbdfd6efd	-0.12374685
94	0xbc8bfae7	-0.017087413
95	0x3d4f3961	0.05059183
96	0xbd2d1643	-0.04225756
97	0xbcc1b695	-0.023646632
98	0xbdb8cea9	-0.09023792
99	0x3d9163d4	0.07099119
100	0xbdf563b6	-0.11981909
101	0x3de18848	0.11012322
102	0x3dfef253	0.124485634
103	0xbd8157bf	-0.06315564
104	0xbc786225	-0.015160118
105	0x3c1e81bb	0.009674485
106	0xbc468273	-0.012116062
107	0xbde0f0be	-0.10983418
108	0xbd85fc03	-0.06542208
109	0xbdfcbe7b	-0.12341019
110	0x3cac8b33	0.02106247
111	0xbc6ca50c	-0.014443647
112	0x390b5b91	0.00013290184
113	0x3d5d177e	0.053977482
114	0x3dc4cdb1	0.09609545
115	0x3df0ecac	0.117638916
116	0xbdc590e8	-0.09646779
117	0x3c8f0785	0.01745964
118	0x3cba0700	0.022708416
119	0x3cc43f19	0.023955869
120	0x3c78d460	0.015187353
121	0xbdc14a6e	-0.094380245
122	0x3d86c3d1	0.06580318
123	0xbddad96f	-0.106860034
124	0x3ddb33ca	0.10703237
125	0xbde12105	-0.10992626
126	0x3d6688e8	0.056282908
127	0x3d65c5a1	0.056096677
128	0x3df0402d	0.117309906
129	0x3d147a40	0.0362494
130	0xbc4e67f3	-0.012598026
131	0x3d494a00	0.049142838
132	0xbd89a48c	-0.06720838
133	0xbd559819	-0.052147005
134	0xbbed941d	-0.0072503225
135	0x3beefa2f	0.007293008
136	0x3ce4d2d4	0.027932562
137	0xbccfeca8	-0.025381401
138	0xbc849dbc	-0.016188495
139	0x3d9f8d23	0.077905916
140	0xbd328315	-0.04358204
141	0x3ca68abe	0.02032983
142	0x3d867297	0.06564825
143	0xbcb0bfc1	-0.02157581
144	0x3dd23e98	0.10265845
145	0x3bfc4b9c	0.007699443
146	0xbdc269fa	-0.0949287
147	0x3d855946	0.06511168
148	0x3dd63176	0.10458653
149	0xbdbf015c	-0.09326431
150	0x3ae6ff4d	0.0017623693
151	0x3d62c196	0.0553604
152	0x3dacc5b2	0.08436145
153	0x3bb0963a	0.005389002
154	0xbdd49473	-0.10379877
155	0xbd98c317	-0.074590854
156	0x3d933406	0.07187657
157	0x3decd065	0.115631856
158	0xbb20ac85	-0.0024516892
159	0xbd7b066f	-0.061285432
160	0xbd3dd853	-0.04634888
161	0xbd7ecb6a	-0.06220571
162	0xbdba2422	-0.09088923
163	0xbd65535c	-0.0559877
164	0xbdbb7b79	-0.0915441
165	0xbd5fe4b2	-0.05466146
166	0xbc4850da	-0.012226308
167	0x3dcf7785	0.101302184
168	0x3d368fea	0.04457084
169	0x3dc07721	0.09397722
170	0xbda8e0ba	-0.08245988
171	0xbce8595e	-0.028362926
172	0x3dd0e0cf	0.10199129
173	0x3d7b2310	0.061312735
174	0x3da498fd	0.08036993
175	0x3db72ae5	0.08943728
176	0xbd45b41b	-0.048267465
177	0xbddb8d6a	-0.10720332
178	0x3c312130	0.010811135
179	0xbd8f77cb	-0.070052706
180	0x3de6095d	0.11232255
181	0xba844c25	-0.0010093494
182	0xbd6a66c1	-0.0572269
183	0xbce7ea58	-0.028309986
184	0xbd206f64	-0.03916873
185	0x3d21eb3c	0.039530978
186	0x3da22891	0.07917894
187	0xbdd09c98	-0.10186118
188	0x3d1158dc	0.035485134
189	0xbc87f047	-0.016594065
190	0x3dc5845a	0.09644385
191	0x3c91b44e	0.017786171
192	0xbc3b320b	-0.011425505
193	0x3d245807	0.040123012
194	0xbd272e3a	-0.04081557
195	0xbdaf8f6c	-0.085722774
196	0x3d3ca980	0.046060085
197	0xbbf20db6	-0.0073868884
198	0xbdb9c815	-0.09071366
199	0xbd9cb408	-0.07651526
200	0x3dec0fb4	0.11526433
201	0xbce4f8c1	-0.027950646
202	0xbd9c21fc	-0.076236695
203	0xbdde0bbf	-0.10842084
204	0xbad93b2e	-0.0016573423
205	0x3dac329e	0.08408092
206	0x3dd8622f	0.10565602
207	0x3c82ae51	0.015952261
208	0xbd5cc102	-0.053895004
209	0xbd9c748c	-0.07639417
210	0xbcbb9af2	-0.022901032
211	0xbdd687e7	-0.1047514
212	0x3dc227bb	0.09480234
213	0x3debd751	0.11515678
214	0x3d3880e9	0.045044813
215	0x3caf26c0	0.021380782
216	0x3d79937d	0.06093167
217	0x3dbcd333	0.092199706
218	0x3beb7c4d	0.0071864487
219	0x3d335c20	0.04378903
220	0x3d8bbf13	0.06823554
221	0x3d061e65	0.03274383
222	0xbcf300e1	-0.029663505
223	0xbdb672c5	-0.08908609
224	0xbd3e3d9e	-0.04644548
225	0xbd4eb347	-0.05046394
226	0xbc76ee62	-0.015071483
227	0x3db9d1c0	0.0907321
228	0x397afc73	0.00023935903
229	0xbdd151d6	-0.10220687
230	0xbdf48f1f	-0.11941361
231	0xbdc07525	-0.093973435
232	0x3dffe07f	0.12493991
233	0x3d3c8f92	0.046035357
234	0x3df5b902	0.11998178
235	0x3d994cd9	0.07485361
236	0x3d0890db	0.03334127
237	0xbd4721fe	-0.0486164
238	0xbc4fc6cf	-0.012681677
239	0xbbfe5d92	-0.0077626193
240	0xbdfbd823	-0.12297084
241	0x3da07c3d	0.078361966
242	0x3e02866e	0.12746593
243	0x3d9c624f	0.076359384
244	0x3c522566	0.012826299
245	0xbd8cf28b	-0.06882199
246	0xbd0a25de	-0.03372752
247	0xbd04b159	-0.032395694
248	0xbdf307ee	-0.11866747
249	0x3d3ef646	0.046621583
250	0xbdfda3bd	-0.12384746
251	0xbcea5aee	-0.028607812
252	0xbd886411	-0.06659711
253	0xbdf85e04	-0.12127307
254	0xbcac2548	-0.02101387
255	0xbce9b179	-0.028527008

gru.bias_ih_l0 f4 [192]
0	0x3bccef02	0.006254078
1	0xbda7724a	-0.08176096
2	0xbd6b6807	-0.057472255
3	0x3ddd0908	0.10792738
4	0x3da264c4	0.07929376
5	0xbd14c72f	-0.03632277
6	0x3d5e339d	0.05424844
7	0xbd9a151a	-0.07523556
8	0x3de9da75	0.114186205
9	0x3d59b279	0.05314872
10	0xbc151df8	-0.009101383
11	0xbb7920a3	-0.0038013838
12	0xbd065115	-0.03279217
13	0xbe01e8b8	-0.12686431
14	0xbaf8e9c0	-0.0018990561
15	0xbdaf98f4	-0.08574095
16	0x3d9aaf8c	0.07553014
17	0xbc674cc5	-0.014117424
18	0xbcbf3aa4	-0.023343392
19	0xbd57ba40	-0.052667856
20	0x3d476f8c	0.048690364
21	0xbda5a0bc	-0.08087298
22	0xbc78bd78	-0.015181892
23	0x3b849c0c	0.0040469225
24	0xbe0128ea	-0.12613264
25	0xbdbdef94	-0.092742115
26	0xbcd9f9cd	-0.026608372
27	0x3dc7a957	0.09749096
28	0x3d74cb27	0.059764054
29	0xbd9da6ba	-0.07697816
30	0x3dae253c	0.08503196
31	0x3d99b3e6	0.07505016
32	0xbd72ecc2	-0.05930782
33	0x3d64480e	0.05573278
34	0x3deb1bfc	0.11479947
35	0xbd7ddfbc	-0.061980948
36	0xbdf8365d	-0.12119744
37	0x3ce4c617	0.027926488
38	0xbcf6d8e4	-0.030132718
39	0xbd5cc5bf	-0.053899523
40	0x3d98c114	0.07458702
41	0xbcbead2b	-0.023275932
42	0x3db00638	0.08594936
43	0xbcefced3	-0.029273426
44	0xbcba4237	-0.022736652
45	0x3dab6b3b	0.08370062
46	0x3d98cece	0.0746132
47	0xbdb504bc	-0.08838794
48	0xbcdcdc2e	-0.026960459
49	0xbdc4b11f	-0.09604096
50	0xbe027b1f	-0.1274228
51	0x3c7d1340	0.015446484
52	0x3db42c15	0.087974705
53	0x3d35f199	0.04441986
54	0xbd1db17b	-0.038499337
55	0xbbe27b96	-0.0069117052
56	0x3c564278	0.013077371
57	0xbb4b7cd2	-0.003104974
58	0x3da5b4b4	0.08091107
59	0xbcfce18c	-0.030869268
60	0x3b9cb98e	0.004782862
61	0xbda7492f	-0.081682555
62	0x3a5da31a	0.0008454785
63	0x3d40ecaa	0.0471007
64	0xbde31cdc	-0.11089489
65	0x3da2a027	0.07940703
66	0x3d6bb69d	0.0575472
67	0xbd874f45	-0.06606916
68	0x3d980434	0.07422677
69	0xbdbdbb7c	-0.092642754
70	0x3d81593a	0.06315847
71	0xbdbe9023	-0.09304836
72	0xbd86fe12	-0.06591429
73	0x3db3660e	0.087597
74	0x3d6250cc	0.055252835
75	0x3d8c7997	0.06859129
76	0x3de50db6	0.11184256
77	0x3d932d50	0.07186377
78	0xbdce0082	-0.100586906
79	0xbded6e9a	-0.11593361
80	0x3d855bb4	0.065116316
81	0x3ddbf1a1	0.107394464
82	0xbde1a9c7	-0.110187106
83	0x3da63ef2	0.081174746
84	0x3ddf7785	0.109114684
85	0xbbbaa394	-0.0056957696
86	0x3dbe7e78	0.09301466
87	0x3da29aad	0.07939658
88	0x3e00f142	0.12592033
89	0xbb83fae5	-0.0040277117
90	0x3cff0442	0.03112996
91	0xbcf08eb9	-0.02936493
92	0x3d56bab8	0.052424163
93	0x3c9dcf38	0.019263849
94	0x3d88c2f3	0.066778086
95	0x3debb038	0.115082204
96	0xbd7fccc6	-0.062451147
97	0xbdec8273	-0.11548319
98	0xbb4d572f	-0.0031332483
99	0xbc8b07b0	-0.01697144
100	0x3cc0240e	0.023454692
101	0x3dbea5d8	0.09308976
102	0xbd1aa759	-0.03775725
103	0xbdef5f8d	-0.11688147
104	0x3c895dd7	0.01676838
105	0x3d34e338	0.044162005
106	0x3dc1ec10	0.094688535
107	0xbd63b6f2	-0.055594392
108	0x3dc31155	0.0952479
109	0xbdf641c6	-0.12024264
110	0x3d852f8a	0.06503208
111	0xbd304b45	-0.043040533
112	0x3ca28bc2	0.019842032
113	0xbdb2d29e	-0.08731578
114	0xbd6ffa69	-0.05858842
115	0xbdfe048f	-0.12403213
116	0xbd72edbc	-0.059308752
117	0x3c9b8cca	0.018988032
118	0xbe016bf8	-0.12638843
119	0x3dc7cf8e	0.09756385
120	0xbd57b3c4	-0.052661672
121	0x3cbd1dc3	0.02308548
122	0xbd493297	-0.04912051
123	0xbc40cced	-0.011767608
124	0xbdcf1bee	-0.10112749
125	0xbdf0a60f	-0.11750423
126	0xbda53b2b	-0.08067926
127	0x3ded7eff	0.11596488
128	0xbd6cad7b	-0.05778263
129	0x3dc69d3f	0.09697961
130	0x3dd1997b	0.10234352
131	0xbdc85137	-0.097811155
132	0x3dbe8fde	0.09304784
133	0xbdc47b83	-0.095938705
134	0xbcad5c4c	-0.021162175
135	0xbb0c0f65	-0.002137148
136	0xbd5b1cfe	-0.053494446
137	0x3dace562	0.08442189
138	0x3dcdf835	0.10057107
139	0x3c2fc088	0.010727055
140	0x3d252f01	0.04032803
141	0x3ca7a92b	0.020466408
142	0x3c9b70d5	0.018974701
143	0x3c920d9a	0.017828751
144	0x3d8e5c14	0.06951156
145	0x3d0dd511	0.034627024
146	0xbbc559b7	-0.0060226577
147	0xbdbbe3e2	-0.091743246
148	0xbd13f5df	-0.036123153
149	0xbde05471	-0.10953606
150	0xbc80f50b	-0.015741846
151	0xbd4bf0c9	-0.049790177
152	0x3db49dbe	0.088191494
153	0x3c88ec58	0.01671426
154	0x3d0bd215	0.034135897
155	0xbd819847	-0.06327873
156	0xbdb7b88f	-0.08970749
157	0x3dd865bc	0.10566279
158	0xbd76fdac	-0.060300514
159	0x3dd0d020	0.10195947
160	0x3dcac49e	0.09900783
161	0x3d941880	0.072312355
162	0xbda54645	-0.080700435
163	0xbca59328	-0.020211771
164	0xbd129675	-0.03578802
165	0x3d0d172c	0.034445927
166	0x3d54ba16	0.051935278
167	0x3d9fd258	0.07803792
168	0x3dec6c37	0.11544078
169	0x3de5ade7	0.1121481
170	0xbd89e834	-0.06733742
171	0xbd0ecb84	-0.034862056
172	0x3c74cbb4	0.014941145
173	0x3d86345b	0.06552955
174	0x3dbcd54a	0.09220369
175	0xbdf2eaae	-0.11861168
176	0x3df7a721	0.12092424
177	0xbd3a0867	-0.04541817
178	0x3d5c10fc	0.053727135
179	0xbdbb93b2	-0.0915903
180	0x3d72dae6	0.05929079
181	0xbdad756e	-0.084696636
182	0x3cfcdcde	0.030867036
183	0x3d848ebe	0.064725384
184	0x3dbe32a6	0.09287004
185	0xbd9dfd0a	-0.07714279
186	0x3dcdfe8a	0.10058315
187	0x3d4bce4a	0.04975728
188	0x3ccc67a7	0.024951769
189	0xbda3dc89	-0.08001048
190	0xbc6b93fb	-0.014378543
191	0x3de2e876	0.11079495

gru.bias_hh_l0 f4 [192]
0	0xbd98fc72	-0.07470025
1	0x3d374873	0.044746827
2	0xbdbc5a33	-0.09196892
3	0xbd79fa02	-0.06102944
4	0x3d29e98e	0.0414825
5	0xbdaff117	-0.08590906
6	0x3cffc668	0.031222537
7	0x3db5a6b2	0.08869685
8	0xbce02bd4	-0.027364649
9	0x3c6fba44	0.0146318115
10	0x3d1c74f6	0.03819748
11	0x3df7b5f1	0.120952494
12	0x3ddd2cb5	0.10799543
13	0x3bf742f5	0.0075458237
14	0xbd8eb62f	-0.069683425
15	0x3c277c48	0.010222502
16	0xbdc6feca	-0.09716566
17	0x3d54a8a3	0.051918637
18	0xbdc0e687	-0.094189696
19	0x3da593ed	0.08084855
20	0x3d15e748	0.03659752
21	0x3d77f284	0.060534015
22	0x3de0a54a	0.109690264
23	0xbde02cb0	-0.109460235
24	0x3d1fe5d4	0.03903754
25	0xbdd9b2b4	-0.10629788
26	0xbdfb9057	-0.1228339
27	0xbdd3e2c5	-0.10345987
28	0x3b3774eb	0.0027993273
29	0xbdd1f112	-0.10251059
30	0x3dbd8e50	0.092556596
31	0xbd9697cc	-0.07353172
32	0x3d148c0a	0.036266364
33	0x3dd48999	0.10377807
34	0xbd227406	-0.03966143
35	0x3db0f109	0.08639724
36	0x3ab91c36	0.0014122787
37	0x3da74788	0.081679404
38	0xbc238747	-0.009980983
39	0x3db53a24	0.0884898
40	0x3deaad52	0.114588395
41	0xbd9a76b8	-0.07542175
42	0x3b6f4b77	0.0036513486
43	0xbdefe5c0	-0.11713743
44	0x3dbb3c08	0.091423094
45	0xbd341c80	-0.043972492
46	0xbdb57742	-0.08860637
47	0xbde32122	-0.11090304
48	0xbd0ace88	-0.03388837
49	0xbd56470b	-0.052313846
50	0xbd0f0ba4	-0.03492321
51	0xbd753f28	-0.059874684
52	0x3da2c069	0.079468556
53	0xbdd48f9f	-0.10378956
54	0x3d8662f4	0.065618426
55	0xbd2037fe	-0.0391159
56	0x3c4dfdf8	0.012572758
57	0xbd9b5276	-0.075840876
58	0xbdaa5f40	-0.08318949
59	0x3d7216ae	0.05910366
60	0xbb1d2d66	-0.0023983358
61	0x3db683d7	0.08911865
62	0xbd967923	-0.07347324
63	0x3dd13c37	0.10216563
64	0xbd4db6f7	-0.050223317
65	0x3d8a67c3	0.06758072
66	0x3df96cc9	0.12178952
67	0x3de1f191	0.11032403
68	0xbdf488aa	-0.11940129
69	0x3ddf08a8	0.10890323
70	0xbd89cdbc	-0.06728694
71	0xbdbc2e57	-0.09188526
72	0xbde13754	-0.10996881
73	0x3dd8834c	0.10571918
74	0xbd9347c6	-0.07191424
75	0xbd1b91b3	-0.037980746
76	0x3d16d3bf	0.03682303
77	0xbca179c3	-0.01971138
78	0xbd036b12	-0.032084532
79	0x3c1a3b22	0.009413512
80	0xbc6e2666	-0.014535522
81	0x3de50fe7	0.11184674
82	0x3d704de0	0.058668017
83	0x3c901cb0	0.017591804
84	0x3d9db833	0.07701149
85	0x3ddb0298	0.10693854
86	0x3daea3da	0.08527346
87	0x3deec8f5	0.11659423
88	0x3dd8f4e6	0.10593586
89	0xbdbc3e38	-0.09191555
90	0x3d9d2a09	0.07674033
91	0xbc59cb91	-0.013293163
92	0x3d84de2e	0.0648769
93	0xbdcf5df1	-0.1012534
94	0x3d6f8666	0.05847778
95	0x3bfb6403	0.0076718344
96	0xbdb935f7	-0.09043496
97	0x3da4ec73	0.080529116
98	0x3ce03d5a	0.027373005
99	0x3d3c8424	0.046024457
100	0xbda7d2a8	-0.08194476
101	0xbd59d6e1	-0.05318344
102	0xbdb7d9e3	-0.089771055
103	0x3d9c769f	0.07639813
104	0x3dadd8ac	0.084885925
105	0xbccf6da8	-0.025320843
106	0xbb46e17e	-0.0030346806
107	0x3ddcbe26	0.107784554
108	0xbd1892cb	-0.037249368
109	0x3d635ff8	0.055511445
110	0x3db0da16	0.086353466
111	0xbcde75ba	-0.027155746
112	0xbdb38016	-0.08764665
113	0xbd925b46	-0.07146315
114	0x3dc3b5c8	0.095561564
115	0x3d7a3cec	0.061093256
116	0xbdee272a	-0.11628564
117	0x3d9d4676	0.07679455
118	0x3d6c2c5b	0.05765949
119	0xbd8039ca	-0.062610224
120	0xbda25c14	-0.07927719
121	0x3ddf0afd	0.10890768
122	0xbd5ace23	-0.053419244
123	0x3dc056ce	0.09391557
124	0x3d41265c	0.047155723
125	0xbd2dd75c	-0.04244171
126	0x3d7aa40d	0.061191607
127	0x3dc935c5	0.09824709
128	0xbdda9fc9	-0.10675008
129	0xbcc29e46	-0.023757111
130	0x3d2ca3de	0.042148463
131	0x3c788110	0.01516749
132	0x3d0a70ac	0.03379886
133	0x3de31455	0.110878624
134	0x3b8a9769	0.0042294753
135	0x3de64304	0.11243251
136	0x3dd36481	0.10321904
137	0x3d727ed3	0.05920298
138	0xbdf6972f	-0.12040555
139	0xbda2619d	-0.079287745
140	0x3d0561b3	0.032563876
141	0x3d00cee9	0.031447325
142	0x3c78360f	0.015149607
143	0xbdce89fa	-0.10084911
144	0x3d2a4d02	0.041577347
145	0x3c1d3f70	0.009597644
146	0xbd98939d	-0.0745003
147	0x3cd2000a	0.025634784
148	0xbd5032c4	-0.050829664
149	0x3dd67076	0.10470669
150	0x3df44fcd	0.11929283
151	0x3d0cbdc3	0.03436066
152	0xbce90370	-0.028444022
153	0xbdb300f8	-0.08740419
154	0xbdce0e41	-0.100613125
155	0xbd8c87e9	-0.0686186
156	0x3d8c3479	0.06845946
157	0x3dc11e90	0.094296575
158	0xbd973fb2	-0.07385196
159	0x3b8c0c05	0.004273894
160	0xbdc98e8a	-0.0984164
161	0x3ddb69c3	0.10713532
162	0x3e00729d	0.12543721
163	0x3cea32fe	0.028588768
164	0x3db8b013	0.090179585
165	0x3d6a3e3e	0.057188265
166	0xbd9b34ca	-0.07578428
167	0xbdbe5f71	-0.09295548
168	0x3d9b6bfb	0.07588955
169	0x3dd95dff	0.106136315
170	0xbd086bf6	-0.033306085
171	0x3d95c9d2	0.07313885
172	0xbd712725	-0.05887522
173	0x3dd4ed6a	0.10396846
174	0x3d2a08b7	0.041512217
175	0xbdc07fd2	-0.0939938
176	0x3dbb532a	0.09146722
177	0x3dc14474	0.094368845
178	0xbd001209	-0.0312672
179	0xbdf01215	-0.11722199
180	0x3dcf392a	0.10118325
181	0xbd92154b	-0.071329676
182	0x3ca32b82	0.019918207
183	0xbdb04d24	-0.086084634
184	0x3cdba109	0.026810186
185	0x3d9eefd2	0.07760586
186	0x3d976f6d	0.073943
187	0xbc9e310e	-0.0193105
188	0x3d958a3f	0.07301759
189	0x3cab2209	0.020890253
190	0xbc3b7d35	-0.011443426
191	0xbd93221c	-0.0718424

fc.weight f4 [2, 64]
0	0x3d820475	0.06348506
1	0xbde4c917	-0.11171167
2	0x3c02674d	0.007959199
3	0xbc95ba2a	-0.018277247
4	0xbdee60fe	-0.116395935
5	0xbdeed181	-0.116610534
6	0x3da3ecfb	0.08004185
7	0xbdc816d7	-0.09769981
8	0x3d4bc566	0.0497488
9	0xbd91b744	-0.07115033
10	0x3d1fa95a	0.038979866
11	0xbd28b196	-0.041184984
12	0xbdd92d23	-0.10604312
13	0xbc0e338e	-0.008679284
14	0x3df543bd	0.11975811
15	0x3d66f2c4	0.056383863
16	0xbc771495	-0.015080591
17	0x3c02fbb8	0.007994585
18	0xbdada2c1	-0.084783085
19	0x3d5b0de6	0.05348005
20	0x3dd5df43	0.104429744
21	0xb9584263	-0.00020624096
22	0xbc1a82ff	-0.009430646
23	0xbd989a93	-0.07451358
24	0x3dca0795	0.098647274
25	0xbdaf902d	-0.08572421
26	0xbcac57a0	-0.021037877
27	0xbd39f35a	-0.045398094
28	0x3de1770a	0.11009033
29	0x3d8177d0	0.063216805
30	0x3dce2be5	0.10066966
31	0xbccfbabd	-0.025357598
32	0xbddd5777	-0.10807698
33	0xbd331782	-0.04372359
34	0xbdb0fa00	-0.08641434
35	0x3dd2af86	0.10287385
36	0x3b0b4492	0.0021250588
37	0xbbc79edf	-0.006091937
38	0x3dd17475	0.102272905
39	0x3d6d2de3	0.05790509
40	0xbc181fb7	-0.009284905
41	0x3dc389fa	0.09547801
42	0xbd55177f	-0.05202436
43	0xbda757f6	-0.08171074
44	0x3da7f133	0.08200302
45	0xbd7efe02	-0.06225396
46	0x3d86ce33	0.06582298
47	0xbd5da26c	-0.054109976
48	0xbd43bc05	-0.04778673
49	0x3b8738e2	0.004126654
50	0x3d911d95	0.070857204
51	0x3db6b0a5	0.08920411
52	0x3d587c86	0.05285313
53	0x3bd26dde	0.0064217886
54	0xbdc5a84e	-0.09651242
55	0xbdec2d90	-0.11532128
56	0xbd93641d	-0.071968295
57	0xbddbf7ca	-0.107406214
58	0xbd8052b1	-0.06265772
59	0x3d56a8b5	0.052406985
60	0x3d864a13	0.06557097
61	0xbdf5bd90	-0.11999047
62	0xbc6a800e	-0.014312757
63	0xbc9b0ce6	-0.018927049
64	0x3d4543e4	0.04816045
65	0xbd3f0b37	-0.046641555
66	0xbd7399af	-0.059472736
67	0x3bb60d26	0.0055557666
68	0x3c6284bc	0.013825592
69	0xbdf2aa73	-0.11848917
70	0xbd8fde53	-0.07024827
71	0x3d7d9ef5	0.06191917
72	0xbb42da1f	-0.002973206
73	0xbce46986	-0.027882349
74	0x3aed6baa	0.0018113751
75	0xbdf32016	-0.11871354
76	0xbd50f163	-0.051011454
77	0xbd9b1eeb	-0.075742565
78	0x3d1ee002	0.03878785
79	0xbd43ba58	-0.047785133
80	0x3cddef5b	0.027091673
81	0x3d515c72	0.051113553
82	0x3d285803	0.04109956
83	0xbc2c68ca	-0.010523031
84	0xbd9ae84d	-0.07563839
85	0x3da0ccc5	0.07851557
86	0x3d0930b0	0.033493698
87	0xbd8c15a8	-0.06840068
88	0x3d9f254d	0.077707864
89	0x3d906ecd	0.070523836
90	0x3db93267	0.090428166
91	0xbdbef7d0	-0.0932461
92	0xbdcf820e	-0.10132228
93	0x3d6cd88a	0.057823695
94	0xbda5db59	-0.08098478
95	0xbd4c159d	-0.0498253
96	0x3d2346d2	0.03986246
97	0x3d9f8be3	0.07790353
98	0x3c5251d3	0.012836891
99	0xbda14f2a	-0.078764275
100	0xbdc186e6	-0.09449558
101	0x3ded6d6e	0.11593138
102	0xbde82477	-0.1133508
103	0x3da55d44	0.0807443
104	0xbcc5cbcd	-0.024145031
105	0x3d46eae9	0.04856387
106	0x3db05dbd	0.08611629
107	0x3dfb8b6e	0.122824535
108	0x3d94fb29	0.072744675
109	0xbdc9d1b7	-0.09854453
110	0x3c2af2b6	0.010433843
111	0xbc91c081	-0.017791988
112	0xbc0f38ac	-0.008741539
113	0xbd4e4daf	-0.050367054
114	0x3d416c3a	0.047222354
115	0xbbde6253	-0.0067866235
116	0xbd4e3566	-0.050343893
117	0xbc99df68	-0.018783286
118	0xbc1f9ee9	-0.009742477
119	0xbdb5301e	-0.08847068
120	0xbd22afd5	-0.039718468
121	0xbd4de089	-0.05026296
122	0xbd1b7909	-0.037957225
123	0x3be4ac7b	0.006978569
124	0x3d02067a	0.031744458
125	0xbdee0816	-0.11622636
126	0xbd2c95d0	-0.04213506
127	0x3d52b216	0.051439367

fc.bias f4 [2]
0	0xbe027d3e	-0.12743089
1	0x3de80cff	0.11330604
